.dart_tool/chrome-device/Default/optimization_guide_prediction_model_downloads/1639ac2c-41a8-4ac7-8262-f7bac87a307a/model.tflite (tflite, 410364 bytes, 166 tensors)

context_transformer_0/bottleneck_input/norm/add f4 [32]
00000000: 6864 10be a210 8c3d d4d2 fb3c 7d4d c0bc
00000010: 6e24 b03d ee2e 0b3d a2cd 94bb 77fe f23b
00000020: 764f 2a3c 84a4 88bd 1883 9a3d d664 10be
00000030: a98c 533d 6575 383c 6068 8cbd 824b c5bd
00000040: 22bd 083e 38a1 6abd fa41 8a3d 72c4 773c
00000050: b013 033e 8aab 67bd c42d 673d 35f7 e6bd
00000060: ae7e 2bbe f656 2ebe 45b9 a23d 4982 ef3d
00000070: d92c 02bd 8e2a 1b3c cff3 57bd 253b 213d
-0.14100802 0.0683911 0.03074018 -0.02347445 0.086006984 0.033980303 -0.004541115 0.0074155885
0.0103949215 -0.06672004 0.075445354 -0.14100966 0.051647816 0.011258458 -0.068558455 -0.096335426
0.13353398 -0.057282656 0.06750865 0.01512252 0.12800479 -0.056560077 0.05644013 -0.1127762
-0.16747543 -0.1702536 0.079454936 0.11694772 -0.03178105 0.009470595 -0.05272275 0.039363045

context_transformer_1/bottleneck_input/norm/add f4 [32]
00000000: 8609 93bd 3880 3e3e ee18 adbd 9e15 1d3d
00000010: 9da9 e73d 070e fb3c fc58 0d3b 8fe5 31bd
00000020: a6e5 5d3e ad0e 6dbe 76c6 b0bd 92e5 433b
00000030: 4047 7f3e a46e aabd ba29 babd 1a45 cb3e
00000040: 4144 9dbd 96e6 3e3c 1c0f cb3b 0390 503c
00000050: f688 d13d 2780 5abc 70e7 42bc 84ed 21bd
00000060: 2934 6dbc 0274 00bc 2c00 863c c815 513d
00000070: 1507 8bbd c61e bb3d 27ba ddbd e40b 05be
-0.07179551 0.18603599 -0.084520206 0.038350694 0.11311648 0.030646337 0.0021567931 -0.043431815
0.21669635 -0.2315013 -0.086316034 0.0029891473 0.24929523 -0.08321884 -0.0908999 0.39701158
-0.07679034 0.011651656 0.0061968695 0.012729648 0.10231201 -0.013336218 -0.011895999 -0.039533153
-0.014477768 -0.007840158 0.016357504 0.051046163 -0.0678846 0.09136729 -0.10826521 -0.12992817

mention_transformer_0/bottleneck_input/norm/add f4 [32]
00000000: 84db 443e 90cd 923e 62cf 2a3d 8e51 873d
00000010: d81d 2b3e 8c55 fa3d 2cc4 363e d237 75bd
00000020: e881 4cbe 180e 68bd 9df4 033e d364 793e
00000030: 6c00 9ebe 8596 3ebe e206 973d 58ee 05be
00000040: cc3a 2d3e 95f6 263e ba6d 46be b00c f23d
00000050: 94dd b83c 9a45 f7bd f240 ea3d 160d 2f3e
00000060: 327d d83d 5b81 16bd 3a54 38be 6b14 163d
00000070: 24ad fd3d 5c56 3dbe 2823 353c 5e3e 26be
0.19224364 0.28672457 0.041701682 0.06607352 0.16710603 0.12223348 0.17848271 -0.059867688
-0.1997143 -0.056654066 0.12886281 0.24354868 -0.30859697 -0.18612106 0.0737436 -0.13079202
0.1691696 0.16305001 -0.19377795 0.11818826 0.022566594 -0.12073822 0.114381686 0.17094836
0.10570754 -0.036744457 -0.1800088 0.036640566 0.123865396 -0.18489975 0.011055745 -0.16234729

mention_transformer_1/bottleneck_input/norm/add f4 [32]
00000000: 5b08 62be a0df e83b a188 91be ff9e 663e
00000010: 2e35 cf3d 2cf3 18bd db3b 2e3e ef7b 9a3d
00000020: f50a b53d 806c 89bc 107c 183e e8bf 36bc
00000030: c1cf 6a3e 5e66 5abd 6c37 6cbd 00d9 5abe
00000040: 4034 3d3b 5504 46be f78d 083e 5170 23be
00000050: 40b9 233e 58ba f43b d4dc 0bbd 06da ab3d
00000060: c42a cdbe 06c5 c73e b2a1 9abd 207c 2dbe
00000070: c633 26bd 4a56 443e 51ff 013e d37c 193e
-0.220735 0.0071067363 -0.28424552 0.2252159 0.10117565 -0.03734128 0.1701502 0.0754317
0.088399805 -0.01677537 0.14891076 -0.011154152 0.22930814 -0.05332028 -0.057670042 -0.21371841
0.0028870255 -0.1933759 0.13335405 -0.15960814 0.15988636 0.007468503 -0.034146145 0.08391194
-0.4007169 0.39017504 -0.07550372 -0.16941881 -0.04057672 0.19173542 0.12695052 0.14989023

context_transformer_0/attention/value/add;context_transformer_0/attention/value/einsum/Einsum;context_transformer_0/attention/value/add/ReadVariableOp/resource f4 [32]
00000000: 9659 3cbc d92f 0c3e 01af 183d 44a0 243d
00000010: a7d5 fabd 9932 3cbd 4116 a03d 2654 03bd
00000020: 1465 91bd 39fc b8bc 8be4 053d 659d 0c3e
00000030: 4a3d 03bd 2173 adbd 0c59 1e3e 2c0b 7e3e
00000040: fac4 2dbd b954 2cbe d7db 89bd 5449 b03d
00000050: 1c8b 943d 2ca8 f7bd ba63 54bd 30b7 b0bd
00000060: 5c96 b23c abff 143c f2da 9bbc ded9 253d
00000070: fe2d 36bd 18fe c1bc c27c 763d c306 823b
-0.011495968 0.13690127 0.03727627 0.040191904 -0.12247782 -0.04594669 0.078167446 -0.032062672
-0.07099357 -0.022581207 0.03268866 0.13731916 -0.03204087 -0.08469225 0.15463656 0.24808949
-0.04242418 -0.16829194 -0.06731384 0.08607736 0.072530955 -0.12092623 -0.05185292 -0.0862869
0.021800213 0.009094159 -0.0190253 0.040490977 -0.044477455 -0.023680732 0.060177572 0.003968091

context_transformer_0/bottleneck_input/norm/mul f4 [32, 32]
00000000: 470c 27be 9168 1bbf 2808 d9be 4d9e bcbd
00000010: 04aa 643e 1863 023e cec2 0ebf 94a6 d2bc
00000020: f26c b23d 5974 183e fde5 99be 98f3 1e3c
00000030: 81c4 28bc 6b46 fa3d bee0 90be fc11 3ebe
00000040: b3b6 27be 3784 ae3d a30b b6be 9012 ca3c
00000050: a199 c1be 5936 5b3e 6ed7 a3bd 387b fe3d
00000060: 65fd 133f 9509 47be f312 e63d 6834 953a
00000070: 5af5 2bbe 462a 33bd e425 34be fc8f 9fbe
00000080: b0b8 45be 42a1 1cbe 3587 fabe e017 743a
00000090: 5ba8 bcbe d351 313f 33b1 07bf ef08 4c3f
000000a0: 7c05 893d a182 983e a076 863d cd6b edbe
000000b0: c4b7 203e 99c3 efbd 8d49 9c3d 15f7 00bd
000000c0: 8ccd 883f 7bf6 153f 192c 273e b356 81be
000000d0: 8c22 533e 4691 133f 22f7 0b3e 5c31 683e
000000e0: 38fe a63e 1860 863c ec87 773e 26f3 5ebd
000000f0: 633f 0dbf f147 a1be 3b42 e23d 619e 8f3e
00000100: 3dce 2e3e be14 5dbe 2fe2 cfbd 4785 a3be
00000110: 59e0 503d 4d2c e53d 9241 0bbe c333 a53d
00000120: a46c 2fbd 27f7 d03d 1818 163f 1f5e d7be
00000130: 0e38 043c c0c3 4b3d e47f b53d 6265 a1bd
00000140: d182 593e b8fd c53d f243 a63d 408d 6bbe
00000150: e6f8 bd3d c9cc b43e fa5b 2cbe 025b 833d
00000160: 972c 643e 0c27 0bbd f7a5 68bc b7f3 983b
00000170: dbfd 45be 6b7b b5bd 32b7 1a3e deeb 5d3e
00000180: 9602 50be 81fc 3ebd 4af3 fcbe 6a42 3d3d
00000190: 7543 05be e199 6c3e 97fd 37bd 8278 383e
000001a0: ffe0 3c3b 3e50 f1be 0f79 e4bd d60b a2be
000001b0: 8c48 a13e edb7 bcbe 9431 22bf d34d 7f3c
000001c0: 8ece ad3e cc22 a8be d964 433d 0181 163e
000001d0: 4a50 803d e055 90be 06dd ce3d 8a76 5d3e
000001e0: 13ae 36be 9f7e a7be fb0b b33e 0a47 15be
000001f0: cc01 63be 0ba0 68bc afc8 823f 10bf d33c
00000200: 87ba a7ba 0d39 5c3e 823a b2be 1590 a13e
00000210: 5fba 983b 9c26 843d e92a e6be fd66 c53e
00000220: 3556 803d b0ab 8abe 7a13 a7be a927 fa3e
00000230: 06c6 d63c 2a6c 993e b787 c5be 506c 2ebc
00000240: 3d30 c6bc 7650 c4bd 9af6 d1bd 235e 083f
00000250: 6db4 223f 2caf 72bd d6b4 9ebe 0e6b be3e
00000260: c29d d8bd cb03 82be 4169 59be 2d3a b9bd
00000270: 60a3 73be ab50 93be 92f4 0f3d d137 573d
00000280: e290 af3e f697 55be d423 163f de3a 383e
00000290: 011e 7dbd 10cd 09bf d1a9 8d3d 42e4 44be
000002a0: 354c ffbd f0d7 dbbe 406e 05be 3c57 843b
000002b0: b09a 1b3e d347 3e3e 4d06 9abd df1a d83d
000002c0: 6691 fa3e ed78 84bd 7ac8 67bd 6d8c fdbe
000002d0: 3fe5 073e 0709 f9be e0a9 993e c789 1fbe
000002e0: 2b95 3e3e de03 143d 741b 033f dbcc a03c
000002f0: 0b5d 9b3c 053b 463e ee80 08bf ce84 31be
00000300: bbae 46be a1b1 66be 0828 d3be 362e f3bd
00000310: 82d9 c93d 5787 cc3e dd4c e63c 1cdf 50be
00000320: 0c06 acbc 77e0 e63d 92ae b03e f284 b7be
00000330: 5efe ff3e 24f3 8b3e 7814 67be 3925 a03b
00000340: 776c 273f c54a 413d 3c12 d3bd 203f 3c3e
00000350: b2fd 81be cbf1 f43e 27a5 133e 6d62 13be
00000360: 1de4 be3c def5 2c3d 82e0 1dbe 46db df3d
00000370: 9c6d 37bf 8fc2 9d3d 4444 ecbd f168 d2be
00000380: 379d 233c c3b7 bc3d 123c 10be e69d 64bc
00000390: 910b 073e 9eae 3b3d edd1 513d 046b 34bb
000003a0: 3efe 6d3d c48b c93e 1093 8ebc cf60 8b3e
000003b0: c32b d9bc b68c abbd d4f0 95bd 4e27 b8be
000003c0: 1d07 413e e6d6 40be 7421 da3c a6a9 dbbd
000003d0: 0f76 af3e ab89 683e 17ac 83bd c59b f4bd
000003e0: 4bb1 41be 47ba 8a3d 5719 63be c1b3 5abe
000003f0: 7e30 e8be fc51 2b3e bb66 243e 5759 2b3e
-0.16313277 -0.6070643 -0.42389035 -0.09209881 0.22330481 0.12733114 -0.55766 -0.025714196
0.08712186 0.14888133 -0.3005828 0.009701632 -0.010300756 0.122204624 -0.28296465 -0.18561548
-0.16378288 0.08521312 -0.35555753 0.024667054 -0.37812522 0.2140745 -0.08000074 0.12425846
0.57808524 -0.19437249 0.11234083 0.0011383416 -0.16792813 -0.043741487 -0.17592579 -0.3116454
-0.19308734 -0.1529589 -0.4893128 0.0009311419 -0.36847195 0.6926548 -0.5300476 0.7970113
0.06690499 0.29787162 0.06565595 -0.46371308 0.15695101 -0.11707229 0.07631216 -0.031485636
1.0687728 0.58579224 0.16325416 -0.2526146 0.20618647 0.57643545 0.13668492 0.22675079
0.3261583 0.016403243 0.24172944 -0.054431103 -0.55174845 -0.315002 0.11047789 0.2805052
0.17070861 -0.21589944 -0.10150563 -0.3193762 0.050995205 0.1119009 -0.13599232 0.080665134
-0.042828217 0.102033906 0.58630514 -0.42063996 0.008070005 0.04974723 0.08862284 -0.07880665
0.21241309 0.09667534 0.08118428 -0.23003101 0.09275989 0.3531249 -0.16831961 0.06413843
0.22282635 -0.033972785 -0.014199725 0.004667725 -0.1933512 -0.08861431 0.15108946 0.21672007
-0.20313486 -0.046627525 -0.49404365 0.046205916 -0.13014014 0.23105575 -0.044919576 0.1801472
0.0028820632 -0.47131532 -0.111559026 -0.31649655 0.3150066 -0.36859074 -0.633569 0.01558252
0.3394665 -0.32839048 0.047703598 0.14697649 0.06265314 -0.28190517 0.101007506 0.2162725
-0.17839842 -0.32713792 0.34970078 -0.1457788 -0.22168654 -0.0141983135 1.0217494 0.025847942
-0.0012796678 0.21506138 -0.34810263 0.31555238 0.004660889 0.06452677 -0.44954613 0.38555136
0.06266443 -0.27084112 -0.32632047 0.48858383 0.026217472 0.29965335 -0.38580105 -0.010645941
-0.024192924 -0.09585659 -0.10252114 0.5326864 0.6355656 -0.05924909 -0.30997342 0.3719105
-0.10576965 -0.2539352 -0.21231557 -0.09044299 -0.23792791 -0.28772482 0.03514535 0.052543465
0.34290224 -0.2085875 0.5864842 0.17991206 -0.061796192 -0.53828526 0.069171555 -0.19227698
-0.12465707 -0.42938185 -0.13030338 0.0040387195 0.15195727 0.18582086 -0.07520733 0.10552
0.48939055 -0.06468377 -0.056587674 -0.495212 0.13271044 -0.486397 0.30012417 -0.15579902
0.1861159 0.0361365 0.51213765 0.019628933 0.018965265 0.19358452 -0.5332173 -0.17335817
-0.19402592 -0.22528698 -0.4124148 -0.118740484 0.098559394 0.39947006 0.028112823 -0.2039761
-0.020998977 0.11273282 0.34508187 -0.35843617 0.49998754 0.2733394 -0.22566402 0.00488725
0.6539988 0.047190446 -0.10306212 0.18383455 -0.25388867 0.47840723 0.1441847 -0.14393015
0.023302132 0.042226665 -0.15417674 0.10930495 -0.71651626 0.07703125 -0.11536458 -0.4109569
0.009986213 0.09214737 -0.14085415 -0.013953662 0.13188006 0.045820825 0.05122559 -0.0027529607
0.058103792 0.39364445 -0.01740411 0.27222297 -0.026510125 -0.08376448 -0.07321325 -0.35967487
0.1885037 -0.18831977 0.02662728 -0.10725717 0.3426976 0.22708766 -0.06429308 -0.11943773
-0.18915288 0.06773811 -0.22177635 -0.21357633 -0.45349497 0.16730493 0.16054814 0.16733299

context_transformer_0/kq_shared_bottleneck/norm/mul;context_transformer_0/kq_shared_bottleneck/norm/add;context_transformer_0/attention/key/einsum/Einsum;context_transformer_0/attention/key/add;context_transformer_0/attention/value/einsum/Einsum;context_transformer_0/attention/key/add/ReadVariableOp/resource f4 [32]
00000000: cc24 0f3e 5524 ab3e 7113 6bbe 45eb 333c
00000010: 146b 95bd 0659 513e a020 87bd 3a34 733d
00000020: ca01 3abd 37e7 87be 7bf0 9cbe c099 553e
00000030: e9fa cb3e bc77 4abe a2e8 8dbc 7234 0e3e
00000040: 179c b83e 92f0 47be d95b fd3d 687c 283e
00000050: 5a14 2ebd af38 fb3d 903d 69be bd4b b5be
00000060: 8175 70bc 16bd 68be d528 0c3e 5db1 f13d
00000070: a8b3 2abd 20aa 7fbe 6a81 cdbc 8d2d 683d
0.1397888 0.33426157 -0.22956635 0.010981386 -0.07295814 0.20444116 -0.065980196 0.05937598
-0.045411862 -0.2654359 -0.30652222 0.20859432 0.39839867 -0.19772238 -0.017322842 0.13887194
0.36056587 -0.19525364 0.12371034 0.16453707 -0.042499878 0.12266671 -0.2277739 -0.35409346
-0.014676453 -0.2272838 0.13687451 0.118014075 -0.04167524 -0.24967241 -0.025086123 0.056684066

context_transformer_0/kq_shared_bottleneck/norm/mul;context_transformer_0/kq_shared_bottleneck/norm/add;context_transformer_0/attention/key/einsum/Einsum;context_transformer_0/attention/key/add;context_transformer_0/attention/value/einsum/Einsum;context_transformer_0/attention/key/add/ReadVariableOp/resource1 f4 [32, 32]
00000000: 59cc d93d 9f68 193e 0e54 643d 7e43 273d
00000010: c5fd 7f3e 27d0 e83d 90e3 643e 002d e3bd
00000020: 5b9f 75bb ade1 893e cb0b 8e3c 9981 ecbe
00000030: 6a90 a43d 2b43 bd3e 71f4 be3d 8d86 023d
00000040: f2e7 343e 1880 153d eff5 c2bd 9970 0d3e
00000050: 65fd 19be 07fd 98bd 1259 303f 2ae0 9c3e
00000060: 045e 243e 138e 213e bfb7 c63e 11a3 f5bd
00000070: b6d1 213e d649 133f aaa0 adbd c9bf 3fbe
00000080: a68a 143f 6eb8 963d 5bb0 2fbe 1ff0 d3bd
00000090: 9ac0 9dbc 86d1 a23e 12a8 ae3d af3c 8ebd
000000a0: 8fa4 cfbc e479 8d3d c6f6 8bbc b59c bfbd
000000b0: 5d18 883e 1a1e 67bd f09a 2b3f 532f 163f
000000c0: d264 313f 3e5c 19be cfe6 883b 3bf2 20bd
000000d0: 31ee ad3e b535 29be 9edb a13e b1bc 84be
000000e0: 5f4e 31be 62a0 353d b65b 75be 734f d33e
000000f0: 03a3 553c f9e2 6cbd 2510 01be 8771 babd
00000100: 59a1 f6be b36a 6f3e 485a 243e f63d 13be
00000110: 5678 563e ae21 99be 2dbc 323e 0438 75bd
00000120: 9067 7a3e 0e46 c43d 4c24 9c3e d19a 13bd
00000130: e633 423d 029c e43b 72ee 8b3e f8e2 f33e
00000140: 9498 6bbe de65 37be 558f 7bbd 059a 98bd
00000150: b019 b8be 7df2 3cbe c576 7bbc 343e 523e
00000160: c23a a1bd 4672 b53e d21a f03e d931 fabe
00000170: c095 4dbe 8a72 2cbd ffe1 4e3e ac36 28be
00000180: 72f4 9dbd c475 ed3e 7a1e 89be e804 66be
00000190: 8e2e 19bd 0df0 1abe 6ed5 963e bfff 4a3e
000001a0: d74d 99be e00f 8cbe 7c67 14be 4d66 0abe
000001b0: 20c5 353e 50ab 043f 357e 89be cd08 b23e
000001c0: 60e5 ccbd f950 28be f247 fa3d 0f8d 973e
000001d0: 9635 b4bd 58fd 58be 6cb9 ad3d 23ac c43e
000001e0: b8b3 e8bd 2189 d6bd 003f 153e 8406 30bb
000001f0: da14 b03e 3b38 143f 5279 8fbe c896 a4be
00000200: 6ccd bebe 07b9 b1be b901 a03c 2d77 1f3e
00000210: 1d2c 6b3e 29ac cebe 2932 8cbe 2035 59be
00000220: 29dd ec3e 3fa7 cabd 6944 923e 71d0 92be
00000230: 8b62 49be 4968 a23e 723c 43bf 44d5 48bf
00000240: b229 8abe 7279 663e d1b5 34be 01fd 9f3e
00000250: 84f4 c63e ad36 4c3e 88a8 6c3e 9d92 82bd
00000260: ca72 953e daf1 903e 15f8 1c3f a461 d33e
00000270: fa59 a53e 3fb6 ba3e cbaf 19bd fa69 913e
00000280: fc11 0c3f 14c9 233d 68ad 69be 5aee b63d
00000290: d588 aebe 4ffc 9f3e 3746 a4bd 1567 8c3e
000002a0: 1822 07bf c06f a7be 2d3d 02bf 09e0 083e
000002b0: c3b3 f0bc 0f1e 003e 2207 bebe fba8 89be
000002c0: 9448 373e 6b34 143e 48e9 fa3d 74f6 663e
000002d0: d2c4 a83e 4620 573e eb96 26be 804f f1bb
000002e0: 66df 9d3d 9f05 0bbf 4886 15bf faa6 d03e
000002f0: 918f 7b3e fde0 1e3e f87e 8fbe ae83 6b3d
00000300: 1d5b f43c 107b cbbe 7bc8 583e a6be 4c3e
00000310: 34b3 e23c dc65 e23d 4264 99be 240f 09be
00000320: 5aaa 673e b8b1 3f3e 02ac 2a3e 4d8a 543e
00000330: 30c5 6abe bf07 f6be f7d0 3e3e 8ba0 86be
00000340: d776 bc3d 7605 1b3e 536f 95bd f7bb 95be
00000350: 1303 ed3c be64 533e 6e1d 29be 0e0e b5be
00000360: 0375 ad3d 7942 413c 5af6 63be d0a5 eeb9
00000370: 6a88 b0be 6c5f 17bf ee39 3d3e 6a02 ac3e
00000380: 4029 423e affa e1bd 4705 6abc ae9a c8bd
00000390: 63d7 893c 2e1f c13d 5e1b 38bd 6cce 3abe
000003a0: 7dd1 3d3e 1715 c4b9 f727 443e d795 293e
000003b0: 6ea7 0a3e 37b3 a2be de9d fd3e 081e 013f
000003c0: 7155 893e cbe7 44be 992a 4b3d 58cb 3cbe
000003d0: cbfa e73d 9de0 09be 7e0d 18be 83fc a5be
000003e0: b967 2fbe c3ea ff3d 595a 82be c600 e13d
000003f0: 7489 6ebe de5a eabe 0ba2 fa3d 2925 1c3d
0.10634679 0.14981316 0.055744223 0.04083585 0.24999149 0.11367827 0.22352433 -0.110925674
-0.0037479016 0.2692999 0.017339608 -0.46192625 0.08035357 0.36965308 0.09323967 0.0318666
0.17666605 0.036499113 -0.09519564 0.13812484 -0.15038069 -0.07470136 0.6888591 0.30639774
0.16051489 0.15776853 0.38812062 -0.11993993 0.15802655 0.5753454 -0.0847791 -0.18725504
0.5802406 0.07359396 -0.17157118 -0.10348534 -0.019256879 0.3180048 0.085281506 -0.06945168
-0.025347022 0.069080144 -0.017085444 -0.09356061 0.26581088 -0.05642519 0.6703329 0.5866596
0.69294465 -0.14976594 0.004177905 -0.03929351 0.33970788 -0.16524394 0.31612867 -0.2592521
-0.17315052 0.044342406 -0.23960766 0.41271552 0.013039353 -0.057833645 -0.12603815 -0.09103685
-0.48169973 0.23380546 0.16050065 -0.14379105 0.20944342 -0.29908508 0.17454596 -0.059867874
0.24453568 0.09583674 0.30496442 -0.036036316 0.047412775 0.0069766054 0.27330357 0.476341
-0.23007423 -0.17909953 -0.06141599 -0.07451252 -0.35957098 -0.18451877 -0.015348141 0.20531541
-0.07872535 0.35438746 0.46895462 -0.48866156 -0.20076656 -0.04210142 0.20203398 -0.16427106
-0.0771264 0.4637891 -0.26781064 -0.22462809 -0.037397914 -0.15130635 0.2945971 0.19824122
-0.299422 -0.27355862 -0.14492601 -0.13515587 0.17750978 0.518239 -0.268541 0.3477234
-0.10004687 -0.16437139 0.12220754 0.29599807 -0.08799283 -0.21190393 0.08482632 0.3841258
-0.11362404 -0.10475374 0.14574814 -0.0026859352 0.34390908 0.578983 -0.28022248 -0.32146287
-0.372661 -0.34711477 0.019532071 0.15572806 0.22966047 -0.40365723 -0.2738202 -0.21211672
0.46262482 -0.09895181 0.28567818 -0.28674653 -0.19666497 0.31720188 -0.7626411 -0.7845042
-0.26984936 0.22507265 -0.17647482 0.31247714 0.38858426 0.19942732 0.23111165 -0.063756205
0.2918914 0.28309518 0.61316043 0.4128543 0.3229521 0.36467168 -0.037521165 0.28401166
0.5471494 0.039986685 -0.22820055 0.08932181 -0.3408877 0.31247184 -0.08021205 0.27422395
-0.527864 -0.32702446 -0.50874597 0.13366713 -0.029382592 0.12511466 -0.37114817 -0.26886734
0.1789878 0.14473121 0.12251526 0.22554952 0.32962662 0.21008405 -0.16268508 -0.0073642135
0.077086255 -0.5430545 -0.5840802 0.40752393 0.24566485 0.15515514 -0.28026557 0.057498626
0.029828602 -0.39742327 0.21170227 0.19994602 0.027673341 0.110545844 -0.29959303 -0.13384682
0.22623578 0.18720138 0.16667178 0.20755883 -0.22926784 -0.48052785 0.18634401 -0.2629436
0.092023544 0.15138802 -0.07296624 -0.29244968 0.02893213 0.20643899 -0.16515133 -0.35362285
0.08469584 0.0117956335 -0.22261944 -0.00045518437 -0.34479076 -0.5912998 0.1847913 0.33595592
0.18961048 -0.11034142 -0.014283485 -0.09795128 0.016826337 0.09429775 -0.044947974 -0.18242806
0.18536945 -0.00037399746 0.1915587 0.16561066 0.13540432 -0.31777355 0.49534506 0.5043645
0.26823 -0.19229047 0.04960117 -0.18436944 0.11327132 -0.1346459 -0.14848897 -0.32419214
-0.17129411 0.12495949 -0.25459555 0.10986476 -0.23294622 -0.4577245 0.122379385 0.038121376

context_transformer_0/kq_shared_bottleneck/norm/mul;context_transformer_0/kq_shared_bottleneck/norm/add;context_transformer_0/attention/query/einsum/Einsum;context_transformer_0/attention/query/add;context_transformer_0/attention/value/einsum/Einsum;context_transformer_0/attention/query/add/ReadVariableOp/resource;context_transformer_0/attention/Mul;context_transformer_0/attention/Mul/y f4 [32]
00000000: 9c9a 53be 5bc9 50bd 378e dd3d 708c 9fbd
00000010: 5489 39bc 5fcf febd 9059 ba3d 6b8f e43d
00000020: 8a3c 6f3d 95df 1d3d 1557 003d 3d90 ecbd
00000030: 5f98 79be c64b c93d 5375 1f3d 27ab 39be
00000040: 23ea a1be ad8a 083e 4045 a0bd 84f5 2ebe
00000050: a2a8 f8ba 6e54 b23b fc17 89bb 03dc a53e
00000060: ef2c fa3d d6be 0d3e 6e68 1abe ea1b da3b
00000070: 61f0 2f3e 7960 afbc b0d5 bcbc 8c7b 933c
-0.20664448 -0.050973278 0.10818141 -0.07790458 -0.0113242455 -0.12441897 0.09099114 0.11160167
0.058407344 0.038543303 0.031333048 -0.11550949 -0.24374531 0.09828906 0.03893025 -0.18131696
-0.31623945 0.1333415 -0.078257084 -0.17085844 -0.0018971155 0.0054421937 -0.0041837674 0.32394418
0.12215602 0.1384233 -0.150789 0.0066561596 0.17181541 -0.021408306 -0.023051113 0.018003248

context_transformer_0/kq_shared_bottleneck/norm/mul;context_transformer_0/kq_shared_bottleneck/norm/add;context_transformer_0/attention/query/einsum/Einsum;context_transformer_0/attention/query/add;context_transformer_0/attention/value/einsum/Einsum;context_transformer_0/attention/query/add/ReadVariableOp/resource;context_transformer_0/attention/Mul;context_transformer_0/attention/Mul/y1 f4 [32, 32]
00000000: cbc0 17be a7a2 483d afb3 1abe 5d12 2fbd
00000010: 1f3e d63d e331 1abe 80ff 9cbd 0915 83bd
00000020: f994 f93d 6172 30bd 36da c43d 675e a8bd
00000030: cc17 143d fff8 16bd fa9b 17be 2936 b33c
00000040: a9bd 17be 330b 0c3c ec2e 623d a75c 20bd
00000050: 10bf 983c e43d 803d c8af 723d 0b4a 3d3d
00000060: 5465 06be 13ad bd3d 6be8 833d 6ccb e73d
00000070: f904 20bd bdd0 c4bd d1ed 2fbe a28d f03d
00000080: dd95 8abd 10f3 65bb 4327 083e 5b81 703d
00000090: 5ef7 4c3d a43d fabd 62f3 ce3c 9743 59bd
000000a0: 512a 8a3d a279 edbc 9008 cb38 36b6 eebb
000000b0: 7c1e bebd 3bdc 413d b153 80be f446 a83b
000000c0: d2ff bdbd 33f4 1e3d a1d8 ab3e a6e4 e83d
000000d0: 11b0 3dbe ee19 c1bc f5dc 273b 450b 393d
000000e0: 334d f63d cc0a 763c 59ae 9e3b c486 aebe
000000f0: f029 023d 918f 89bb b57a 0ebe b875 45bc
00000100: a3c4 c13c 504f 02bd 63d9 4fbe 3588 84bd
00000110: 96d2 8a3d 322e a2bc c61e 1b3c 824b b2bc
00000120: 6b66 833d d7d1 153e 7cc5 533d 2875 a9bd
00000130: a11a 253e b0ad 18be 175e 283e 78fe 883d
00000140: b4e2 6e3d 0a22 2fbd 3e82 2c3d 8f56 12be
00000150: 6ef7 2f3d 8929 8abd 6326 433d a49b 0fbd
00000160: a173 23be d4d1 c23d fa43 663d 857b 033e
00000170: 6caf 513d f0b8 c0bd e453 06be 25c2 99bc
00000180: 7f5c 4fbd 3dfa 153d 0d94 71be 92df a3bd
00000190: 165c d0bc 309a a6bd e383 e03c e758 6d3d
000001a0: ac61 9ebd 2cb9 abbd 19fc d5bc e382 aa3c
000001b0: f633 033e 76d0 9d3c 7d17 8abe 0fbf c63d
000001c0: 0721 bebd ea42 39bd 1854 313e 4663 4f3d
000001d0: 0a4d 723d 9eae 61bc f84b cebd 188e 253d
000001e0: 2bc8 20be 54fb a8bd d6a7 d8bd 2b33 de3d
000001f0: 7783 8d3d fee9 24bd c3be 10be 9728 933c
00000200: 10cf fe3c a3d6 883d 5ec4 8dbc 97a5 23bd
00000210: af9d 623d e671 a63d 32af c9bc e151 f3bd
00000220: b38b 9b3d 66c0 03be f99f 9c3d 2dd6 12be
00000230: dfc1 033b 8e0e 5a3e 3ce2 8a3d 7101 35bd
00000240: f4e3 da3c 94f6 41bc 7eab b0be b832 a93d
00000250: 4a80 713e b444 623c f610 313e 7146 a8bc
00000260: 67e6 d9bd c65f 6e3d 1968 a73d 1aaf d53e
00000270: 888c 1dbc db2c 2f3e 3d62 d53d 5bc0 9e3c
00000280: 335a cebc 5224 ec3c 2bc0 d03d 7dcb a33d
00000290: 52d1 03be a082 273b 1fad 29bc d32c ba3d
000002a0: 2c69 18be aee3 21be 20b0 f6bd 3ceb 243e
000002b0: b772 03be d3a6 ca3d de2b 91be c388 49bd
000002c0: d7be b5bd 5898 da3c 0890 a13d 4cb2 1b3e
000002d0: c2cd b1bc 2800 9f3d 09d1 1abe 48cb 013d
000002e0: 4d00 1e3e 371d 32be bf87 21be b130 01be
000002f0: 8614 6dbd 79cb 8d3d 583c c03d dd19 413d
00000300: 91b2 883d cf72 7bbd 2cf9 663e 7820 b13d
00000310: 83a6 0f39 8688 df3d f27f b6bc b237 e2bc
00000320: 550d 2c3d b5a1 aa3d 6ee5 b2ba 6458 44bc
00000330: c6d5 c5bd 5427 84bc 45f7 853e dfd2 6abd
00000340: 7d17 cd3d ba5f 403d 34a9 24be c2d3 0ebd
00000350: deb8 7abd a702 763c 9a1f 9a3d f42a cbbc
00000360: 0239 1a3e 9476 863d 5dbf af3d a5c4 f1bd
00000370: 9039 8dbd 3bce 073d 1b6a 253e 5877 bfbc
00000380: c6c2 613d 9e29 19bd 0eae 023e a161 2e3d
00000390: 82b4 133d ff80 df3b 5725 703d 549f c3bc
000003a0: 962c 243c 4296 913d d9d3 a5bb 833b 22bb
000003b0: 7441 51bd fffd 84bc 6d09 483d f8e6 633c
000003c0: 770b 603d eb64 913c 6275 2c3e ea17 053d
000003d0: cc47 13be afea 8bbd 0e3c d03c 5cfd 54bc
000003e0: 26d9 f13d 0940 f43b ed91 8f3c d36e 99be
000003f0: 5958 2f3d 8948 193d 55fc 33bd 745f 8fbd
-0.14819638 0.048983242 -0.15107606 -0.042742122 0.104610674 -0.15058093 -0.0766592 -0.064004965
0.121866174 -0.04307783 0.09611933 -0.08221131 0.036155507 -0.036858555 -0.14805594 0.021876412
-0.14818443 0.008547592 0.05522053 -0.03915086 0.018645793 0.06261805 0.05924967 0.04621319
-0.13124591 0.09261527 0.064408146 0.113180965 -0.039067242 -0.09610126 -0.17180564 0.11745764
-0.067668654 -0.0035087503 0.13296227 0.058717113 0.050040595 -0.12218788 0.025262538 -0.053042974
0.067463525 -0.028988663 9.681389e-05 -0.007284905 -0.09283158 0.04732917 -0.2506385 0.0051354114
-0.092773095 0.038807105 0.33563712 0.11371736 -0.18524195 -0.023571935 0.0025613878 0.045176763
0.12026443 0.015017223 0.004842561 -0.34087193 0.031778276 -0.0041980227 -0.13913997 -0.012051992
0.023653334 -0.03181392 -0.2029777 -0.06471292 0.06778447 -0.019797418 0.009467786 -0.02176452
0.06416019 0.14630829 0.051702008 -0.08274299 0.1612344 -0.14910007 0.16442142 0.06689161
0.05832167 -0.04275707 0.042116396 -0.14290832 0.042960577 -0.067462035 0.04764403 -0.03506054
-0.15962078 0.09512678 0.05621717 0.12840088 0.051192686 -0.09410274 -0.13117939 -0.018769333
-0.05062532 0.0366156 -0.23591633 -0.08001627 -0.025434535 -0.08134878 0.027406638 0.057946112
-0.07733473 -0.08384928 -0.026121186 0.020814365 0.1281279 0.019264441 -0.26971045 0.0970441
-0.09283643 -0.04522983 0.17317235 0.050631784 0.0591555 -0.013774542 -0.10073084 0.040418714
-0.15701358 -0.08251062 -0.10578887 0.10849603 0.069098406 -0.040262215 -0.1413527 0.01796369
0.031104594 0.06681564 -0.01730555 -0.03995284 0.05532616 0.08127193 -0.024619672 -0.118808515
0.07595005 -0.12866363 0.076477 -0.14339514 0.002010457 0.21294615 0.06781432 -0.044190828
0.026720025 -0.011838574 -0.34505838 0.08261627 0.23584095 0.013810325 0.17291626 -0.020541402
-0.10639649 0.058196805 0.08174152 0.41735154 -0.009616025 0.17106955 0.10419128 0.019378832
-0.025189495 0.028825913 0.10192903 0.07997797 -0.12872818 0.0025560036 -0.010356217 0.09090581
-0.1488387 -0.15809509 -0.12045312 0.1610536 -0.12836729 0.098951004 -0.2835378 -0.04920269
-0.088742904 0.026683971 0.078888 0.15204734 -0.021704558 0.07763702 -0.15118803 0.031688005
0.15429802 -0.17393957 -0.1577444 -0.1261623 -0.0578809 0.06923575 0.0938651 0.047143806
0.06674684 -0.061388787 0.22555989 0.08648771 0.00013699573 0.10914712 -0.022277806 -0.027614448
0.042004902 0.083316244 -0.0013648698 -0.011983965 -0.09659915 -0.016132034 0.26165214 -0.05733001
0.10014246 0.046966292 -0.16080171 -0.034869917 -0.06121146 0.015015281 0.07525559 -0.024800755
0.15060809 0.06565586 0.085814215 -0.11805085 -0.06895745 0.03315566 0.16153757 -0.023372337
0.05511739 -0.037393205 0.12761709 0.042573575 0.036060818 0.0068207975 0.05862936 -0.023879685
0.010020396 0.071087375 -0.0050606546 -0.002475471 -0.05108781 -0.016234396 0.048837114 0.013910048
0.054698434 0.017748317 0.16841653 0.03249351 -0.14382857 -0.06831872 0.025419261 -0.012999859
0.11808996 0.0074539226 0.017525638 -0.29967365 0.042808864 0.03742269 -0.043941814 -0.07000628

context_transformer_0/ffn_layer_0/intermediate_dense/einsum/Einsum;context_transformer_0/ffn_layer_0/intermediate_dense/Relu;context_transformer_0/ffn_layer_0/intermediate_dense/add f4 [32]
00000000: 8443 2cbe baa0 32be a9aa 9cbd b9d4 04be
00000010: d7d7 78be 857b a0bc ae84 4cbd e504 82be
00000020: f687 97be 2367 94bd 7c1e 37be f785 6bbe
00000030: ab2b d4be 637e 96be 0578 b1be e5ea c7be
00000040: 9711 08bf 92db 31be 3d1b c1bd d7e5 bebe
00000050: 2403 03bd 80a9 24be c5ff ebbd 893e c6bd
00000060: a155 b0be d06b 43be 5e33 cfbe b2c8 85be
00000070: bced abbe 4652 9fbd 7b3e 7cbe 8f61 00be
-0.1682263 -0.17444125 -0.07649738 -0.12971772 -0.24301086 -0.019590149 -0.04993122 -0.2539436
-0.29595917 -0.07246234 -0.17882723 -0.23000322 -0.41439566 -0.293933 -0.3466188 -0.39046398
-0.5315184 -0.17368916 -0.094290234 -0.3728473 -0.031985417 -0.16080284 -0.115233935 -0.096798964
-0.3444033 -0.19084096 -0.40468878 -0.2612968 -0.33579814 -0.07779364 -0.2463321 -0.12537216

context_transformer_0/attention/norm/mul;context_transformer_0/attention/norm/add;context_transformer_0/ffn_layer_0/intermediate_dense/einsum/Einsum;context_transformer_0/ffn_layer_0/intermediate_dense/Relu;context_transformer_0/ffn_layer_0/intermediate_dense/add f4 [32, 32]
00000000: 6574 943e 18e4 f0be 4d64 89bd 9a49 c1bd
00000010: 75f5 0d3e 6e4b 723d 0617 0b3e 09f6 1b3d
00000020: 75f8 98be 278b da3d fba9 3bba 83d4 433e
00000030: 2b61 7fbe b9d0 de3e cbe4 383e 25f6 e83d
00000040: 9f80 6fbd 3534 52bd ea66 aabd cdd9 7ebd
00000050: 7c9c 1b3c ee4f f53b 2de0 8e3d eb0c 133e
00000060: a86d d6bd a17d 343e 1442 23bd 5032 c73d
00000070: faa9 b63c b469 a2be 2be7 ac3e bb95 023e
00000080: 0472 82bc 3ca0 11be 8335 36bd 9977 e0bc
00000090: 4753 d3bd e58f 3cbe c452 373d f282 3cbe
000000a0: 33a1 b3bd 2d70 803e 95ec 903d b9a1 553d
000000b0: c15e 52be 8e7f 743e 4389 003e 0cc5 7d3c
000000c0: bf6d 97bd 6d3f 1b3d 8290 1cbf 56cf 29be
000000d0: 2a3d 2cbd ebce b83e a019 3ebe 634e e9bd
000000e0: 5786 fdbd 9328 ca3e 94e7 29be e2dc bfbd
000000f0: 12f0 59be c67e 953d a48f 5c3e 9329 74be
00000100: 057c 333e 6dd6 853c 0264 923c 7ad2 653d
00000110: 434c bbbe 600c d03d 5e54 c63d a874 90be
00000120: ffed f4bd 5d7d 123e 82e5 e93d 304d 4b3e
00000130: 5e59 1c3e 9216 393e 5d88 673d 16c7 883e
00000140: 9f7d 893d d224 c33d 51d3 643d 0b72 2a3e
00000150: 5b76 70be 33fc 81be 8278 0c3d 31f8 633c
00000160: 5a64 653c 427a 8cbe 093b db3e 0d01 c43c
00000170: 7335 fc3e f0c2 aa3e 6fba 433e e3b0 87be
00000180: 030f 493e d1cc 69be 7885 cebd 9b31 343e
00000190: 43ae 02be 9e44 8abe f6fc 173f 6e3a a7bd
000001a0: 13d8 32be 2b46 23be 9154 1f3e 6327 3d3e
000001b0: 9db8 e1bd d49b 33bb fcea 903e 09f5 3a3e
000001c0: 436f 5a3c bd90 c0bc 06e5 4cbe 5e7a 083d
000001d0: 0204 2a3c b258 ad3d eb60 0bbe 27cc e3bd
000001e0: cf59 dc3d 73e9 1abd 4e31 fd3c 6f46 acbe
000001f0: cfc2 dcbd 8ef5 913e 7e4c 903e 8835 0e3d
00000200: 70f1 f23c 7137 bbbb 962e e0be 23ca 173f
00000210: de01 9bbe 55ee fdbc 30f0 393c 3525 273e
00000220: 1f94 d83d 518d 343e a526 71bd 653e 5f3e
00000230: 81ed 4b3c 2cfb 9fbd ba00 023d 4ea7 233d
00000240: dd68 a53e ce99 733e 4666 e33d 1489 003e
00000250: 758e f8bd b1ea 1a3e 7865 6ebe b12f 4a3e
00000260: d8ce 9c3d 0028 0bbe 807b abbe 498f 423e
00000270: ae02 c5bc 98b1 29be 92a4 38be e575 97be
00000280: 3fff 263d 62ef 9b3d 97ff 9f3d ae4c 983e
00000290: 257b 3bbe 7d56 27be 4580 1bbe 1380 1fbe
000002a0: c5b0 15bf e753 883c 7b4c 1b3e b80b 9d3e
000002b0: 038d 2ebd c252 44bd d833 3abe 8e1a 033e
000002c0: 32cf 453d 1965 c6bd a828 253e 1904 cb3c
000002d0: e443 ac3d 1162 2cbe 23ad 993e 5046 e63d
000002e0: 3df1 8b3d fcaa b8be a8d9 743e f2ce febe
000002f0: 2c58 be3d bdf9 ba3d bdf6 2ebe 7b9a d93c
00000300: ead8 7cbe 4213 7b3d 1c23 2e3d 0aa2 5dbe
00000310: 582b 15bf 16be 0fbf 43b3 143e 20e6 a83e
00000320: 8393 693e 7d6a 5e3e 7eca 8e3e 7568 0c3d
00000330: aab7 6a3e fcc0 183e cf2c 94be a021 f93d
00000340: 0f51 d53d 8030 d6bd b4c5 c2bb f56d 093e
00000350: 4dca 553e 9793 9cbe 6327 843d 6a81 013e
00000360: 83d7 fbbd c26b d93a f442 863e 3024 69bd
00000370: 788d dfbd 1b66 bb39 7e6d a1be 9dbd 3a3e
00000380: 837c 9c3d dba4 5cbe 5120 b0be 8c9f 963e
00000390: 92c9 bdbc f461 973d ca66 763e 9e00 a4bc
000003a0: 047a 7c3e 7560 d33c 45e5 7f3e 3aed 193e
000003b0: c60d 8e3e d8be 2a3e 7f6b f73b 7b5f e6bd
000003c0: 5ef1 d6bd ed1d c0be 1cf3 5ebd 9028 64bc
000003d0: 6547 013e cae1 97bd c9e6 08bc 0a74 79bd
000003e0: 9b40 83bc 039e 6bbd 4235 ff3e e0e6 943d
000003f0: 1717 693e b42d 41bd 4d24 1abf c11a 843d
0.28995052 -0.47049022 -0.06708584 -0.094378665 0.13863166 0.059153967 0.13583001 0.038076434
-0.29877058 0.106710725 -0.0007158813 0.19124036 -0.2493941 0.43518618 0.18056028 0.11375073
-0.058472272 -0.05131932 -0.083204105 -0.06221943 0.009497758 0.007486335 0.06976352 0.14360397
-0.10470134 0.17626049 -0.03985794 0.09726393 0.022297848 -0.3172127 0.33770117 0.1275243
-0.015923508 -0.14221281 -0.044484627 -0.027400779 -0.10318618 -0.18414266 0.044756666 -0.18409327
-0.08770981 0.25085583 0.070763744 0.052156184 -0.20543958 0.23876783 0.12552361 0.015488874
-0.07393979 0.037902284 -0.61158 -0.16582999 -0.042050518 0.36095366 -0.18564463 -0.11391904
-0.12379139 0.3948408 -0.16592246 -0.09368302 -0.21282986 0.07299571 0.2153917 -0.23843984
0.17527778 0.016337598 0.017869953 0.05610893 -0.3658162 0.1015861 0.096840605 -0.28214002
-0.11959457 0.14305635 0.11420728 0.19853663 0.15268466 0.18075016 0.05652653 0.2671439
0.067134134 0.09528507 0.05586559 0.16645066 -0.23482649 -0.25387725 0.034294613 0.013914154
0.014000976 -0.27437025 0.42818478 0.023926282 0.4925953 0.3335185 0.19114088 -0.2650214
0.19634633 -0.22832038 -0.10084051 0.17597048 -0.12761788 -0.27005476 0.5937036 -0.081654415
-0.17465238 -0.15944736 0.15559603 0.18472056 -0.1102154 -0.0027406113 0.2830428 0.18257536
0.013332191 -0.023506517 -0.2000924 0.033319823 0.010376932 0.08464183 -0.1361119 -0.11122923
0.10759317 -0.03782029 0.0309073 -0.33647487 -0.10779344 0.28507656 0.2818336 0.03471902
0.029656142 -0.0057133962 -0.43785542 0.5929281 -0.30274862 -0.030997435 0.011348769 0.16322787
0.10575127 0.17632033 -0.058874745 0.21801145 0.012446762 -0.07811579 0.031738974 0.039954476
0.32306567 0.2378914 0.111034915 0.12552291 -0.121365465 0.1512859 -0.23280895 0.19744755
0.0765664 -0.13589478 -0.3349266 0.18999971 -0.02404913 -0.16571653 -0.18031529 -0.29582134
0.040770765 0.07614018 0.07812422 0.29746002 -0.18308695 -0.16341586 -0.1518565 -0.155762
-0.58472854 0.01664157 0.15165894 0.30673003 -0.042614948 -0.047930487 -0.1818384 0.12803099
0.0482933 -0.096872516 0.1612879 0.024782227 0.084113866 -0.16834284 0.30014905 0.1124388
0.06833122 -0.3606795 0.23911154 -0.49767262 0.09294161 0.09129665 -0.1708631 0.02656292
-0.24692121 0.061297663 0.04251395 -0.21643844 -0.5826926 -0.56149423 0.14521508 0.3298807
0.22810178 0.2172031 0.27888864 0.034279305 0.22921625 0.14917368 -0.28940436 0.121646166
0.10415851 -0.104584694 -0.005943978 0.13420852 0.20877953 -0.30581352 0.06452825 0.12647024
-0.12296965 0.00165879 0.26222956 -0.056919277 -0.10915655 0.00035743494 -0.31528848 0.18236394
0.07640936 -0.21547262 -0.34399655 0.294186 -0.023167405 0.0739173 0.24062648 -0.020019826
0.2465592 0.02580283 0.24989803 0.15031901 0.27744883 0.16674364 0.0075506563 -0.1124868
-0.10495256 -0.37522832 -0.054431066 -0.0139256865 0.12624891 -0.07416113 -0.008355805 -0.06090168
-0.016022017 -0.05752374 0.4984532 0.072705984 0.22762714 -0.047162727 -0.6021164 0.064504154

context_transformer_0/ffn_layer_1/intermediate_dense/einsum/Einsum;context_transformer_0/ffn_layer_1/intermediate_dense/Relu;context_transformer_0/ffn_layer_1/intermediate_dense/add f4 [32]
00000000: 4289 b2bd f1d9 e1bd 48bd 49be 60be 88be
00000010: 7fcd e8bd f73b a4be b772 83be 9390 16be
00000020: cedd f1bd 8940 23be b05a 86be 4b61 c8bd
00000030: 9424 53be 164b 033e feab d5be c8b5 b2bd
00000040: fc37 a83d 8e61 3e3b cf46 6fbe f78b 7bbd
00000050: 288c f6bd 41b6 bebe 7d30 02be fc7d d2bd
00000060: 0d92 8b3c 9f2b 89bd 8634 bf3c 3090 36be
00000070: 90f3 17be 14f7 17bd 9a82 7cbe 4024 d3be
-0.08717586 -0.11027897 -0.19701111 -0.26707745 -0.1136732 -0.32077 -0.25673458 -0.14703588
-0.11809884 -0.15942587 -0.26241064 -0.09784182 -0.20619422 0.12821612 -0.41732782 -0.08726078
0.08213803 0.0029049846 -0.23366855 -0.061412778 -0.120384514 -0.37248424 -0.1271381 -0.10277936
0.017037416 -0.06697773 0.023340475 -0.1782844 -0.14839005 -0.037100866 -0.24659196 -0.41238594

context_transformer_0/ffn_layer_0/norm/mul;context_transformer_0/ffn_layer_0/norm/add;context_transformer_0/ffn_layer_1/intermediate_dense/einsum/Einsum;context_transformer_0/ffn_layer_1/intermediate_dense/Relu;context_transformer_0/ffn_layer_1/intermediate_dense/add f4 [32, 32]
00000000: c174 e6bd 834f c7be 8cd0 8d3b a93c b3bd
00000010: 048a 973d 61eb c73c 2222 583d 13f3 f3bd
00000020: ceb5 1ebe 4a0a 10bd b178 a43e 3004 013e
00000030: 607d c33d 7401 0ebe cdbd 923d 4531 6abe
00000040: 5f7a 0a3d 988b 8cbe 7737 35be cbe0 c6bc
00000050: 78af 063d c898 dbbe fb39 6abe 8209 c7bc
00000060: ae24 e2bb ce4a 103e 5a44 55be 512b d63c
00000070: f741 6dbe 71a9 383e fc32 1d3e d9a7 ce3d
00000080: cee0 6ebd b591 37bd c6f4 ea3d 94cb 41bd
00000090: a808 47be d34b 7cbe 90df c8bd e16e 2ebe
000000a0: b10a 08bf 940d fa3c 26c6 95bc f3e7 2a3e
000000b0: f068 dc3d 9965 713e f381 363e a742 1e3e
000000c0: d04b 34bd 2b1b bfbd f056 c73d d5f0 0d3e
000000d0: 1fe4 03be 65e3 913d 2d6e 41be 2f2f 4abd
000000e0: 435e 49bd 7239 96be 0b5b cc3e d7b1 2cbe
000000f0: d74c 95bc 94a2 ef3d 121d dc3e 0d69 9ebd
00000100: bae2 0e3e 25f6 24be 03fd 87be 17e9 1d3e
00000110: c930 8cbc 0d8d f4bd 4caf dd3d 752b 833e
00000120: ef91 0cbc 50e2 c93d 8aa6 91bd 6f25 0e3e
00000130: b7c2 a43d 9049 873e 8984 ffbd 7851 a73e
00000140: 6f70 6cbe f990 623d cb04 65be 6c43 93be
00000150: f494 763e 89bd 563e f466 fc3c 879b 903e
00000160: db5d 473e b1bd f0bd 6cdc bebd 2cd1 4ebe
00000170: ca5e 833e 50ed aebd d51e 38be c668 debd
00000180: 4ada 0ebe 71d7 f9be bf71 b5bd f785 5a3e
00000190: 8891 e53d 9d1f 3abe e44c 15ba 5170 0f3d
000001a0: ee66 e33d ceb4 2cbc 3101 7d3e 0375 0e3d
000001b0: 8950 05be 08df df3c c792 253e 2a09 013e
000001c0: 660f 4d3d 77b7 a23d 4130 82be b2ec 543c
000001d0: d1d0 83be 2048 a2bc 997c 88bd 8a2b ee3c
000001e0: b30c 8c3e 2423 ae3d 36f8 53be e1d3 403d
000001f0: 0cfd bebb 16ab a3be e936 a4be 837a d5bc
00000200: 2383 843e 1a75 32be 1ffe 1bbe 6f3b cb3c
00000210: 79a0 8dbc 757a d2bc 3563 bd3d 9eb1 84bc
00000220: 22cf 313d 90b0 a3bd 89a1 e73d 7d23 31bd
00000230: d9f3 2bbd a248 36bd 8908 e83d 3b2a 8c3e
00000240: 3701 4cbe 66af 983e 44a5 58be ef85 ccbe
00000250: 91ec 6d3d 86d7 883d b9b2 6d3d 443f c63a
00000260: 895a f23e 95fd 623e f10f 95be 2793 18be
00000270: 05b9 993e 691f d13d ecdb af3d f8ce d9bd
00000280: 4cff 053c 7320 593d 4f87 173e bca1 983e
00000290: 7c8b aebd b1a6 833d 7e80 323d f306 94be
000002a0: 5041 bdbc 0339 283e ac03 6e3e 3a24 e5bd
000002b0: e0f1 b13e 969e e03d ade8 d43d bc42 fabd
000002c0: 299a 20be 876f 6dbe 42d6 93be 3de0 843b
000002d0: a777 c1be fca4 8bbe b874 933d 31ee ac3d
000002e0: 5bb4 163d c55b 8abd 2507 0bbe 6f99 c53d
000002f0: 893f 88bc 5b8a 9fbe 4ea7 19be 0ac1 1bbe
00000300: 475e 203d 3b5a f3bd 413e 8dbe fb17 7c3e
00000310: 1846 273e 07ac 04be 8aa9 183e 2f99 023d
00000320: 7744 e03c a506 c33c 1f5e e8bc 0782 3ebd
00000330: b654 a0be 95fd 5e3e eed7 0a3d 73c9 603e
00000340: df66 e5be 5ff7 7f3e c2b6 a7be d164 c33c
00000350: 414a bb3d 02e4 b53e d622 2ebe 2f42 0c3e
00000360: 6a1e a73e d502 8d3e 3ede b1bd 0415 a1bd
00000370: ec89 5e3e 88ba 393e 8944 6b3e 31d1 483d
00000380: 5fd0 853c 779f 1ebd 833c cfbc bc09 2d3c
00000390: ea6e bf3c 6c1c 5ebd 9103 323d c99d 103d
000003a0: 52f1 983c 8e5a e6bc ba3a 043d 76b0 d43c
000003b0: ca1e bd3b 073a ddbc 2be4 d93c 7af5 37bd
000003c0: f63f 7bbc 8cbf dc3c 1e88 1abc 10d1 7a3c
000003d0: 6721 cabb 2702 973c dd84 f8bc 07ab 123d
000003e0: e114 8f3c 3634 d53c 0bde 193d 54ce 34bd
000003f0: dbc6 91b9 4113 a7bb 0187 69bb b21b 0f3d
-0.11252738 -0.3892785 0.0043278392 -0.087518044 0.07399371 0.02440423 0.052766927 -0.11911597
-0.1549904 -0.035166062 0.3212333 0.12599254 0.09545398 -0.13867742 0.07165108 -0.22870357
0.03380811 -0.27450252 -0.1769694 -0.024277112 0.032882184 -0.4289 -0.2287368 -0.024296526
-0.006901345 0.14091036 -0.20826855 0.026143702 -0.23169695 0.18033387 0.1535148 0.10090608
-0.05831986 -0.04481669 0.11472468 -0.047313288 -0.19436896 -0.246383 -0.09808266 -0.17034484
-0.53141314 0.030524053 -0.018282961 0.16690044 0.10762203 0.23573913 0.17823009 0.15455113
-0.044017613 -0.09331354 0.09733379 0.13861401 -0.1287999 0.0712345 -0.18889685 -0.049361404
-0.04916216 -0.29340702 0.3991321 -0.16864716 -0.018225117 0.11700931 0.4299093 -0.077348806
0.13953677 -0.16109522 -0.2656022 0.15420948 -0.017113106 -0.11940966 0.10824451 0.25619093
-0.008579715 0.09857619 -0.07111843 0.13881467 0.080449514 0.2642331 -0.12476451 0.32679343
-0.23089765 0.055314038 -0.2236511 -0.28762376 0.24080259 0.2097074 0.03081081 0.28243658
0.19469397 -0.11754931 -0.09319386 -0.2019698 0.25658256 -0.085413575 -0.17980511 -0.10859828
-0.13950458 -0.4879718 -0.08859586 0.21340166 0.112093985 -0.18176122 -0.00056953565 0.035019223
0.11103617 -0.010541154 0.24707486 0.03477956 -0.13019003 0.02732803 0.16169272 0.12601152
0.050063513 0.079451494 -0.2542744 0.012995886 -0.25745252 -0.019809783 -0.0666439 0.029073495
0.2735344 0.08502796 -0.20700154 0.047077063 -0.0058285054 -0.31966466 -0.32073143 -0.026059395
0.258813 -0.17427483 -0.15233658 0.024808614 -0.017288433 -0.025693158 0.09247438 -0.016197976
0.043410428 -0.07992661 0.11310107 -0.043246735 -0.041980598 -0.04450286 0.11329753 0.2737597
-0.19922338 0.29821318 -0.21156794 -0.39945933 0.058086935 0.06681733 0.05803177 0.0015125056
0.47334698 0.22167046 -0.29113725 -0.14899884 0.3002397 0.10211069 0.08586869 -0.10635179
0.008178543 0.05300946 0.1479771 0.29810894 -0.08522698 0.06428278 0.04357957 -0.28911552
-0.023102432 0.16427998 0.23243588 -0.1118855 0.34754848 0.10967748 0.10395942 -0.1221976
-0.15683807 -0.23187076 -0.28874403 0.0040550516 -0.377866 -0.2727431 0.07199997 0.08443869
0.036793094 -0.06755785 -0.13576944 0.09648406 -0.016631858 -0.31160244 -0.15005228 -0.15210357
0.03915241 -0.118824445 -0.27586558 0.24618523 0.16335332 -0.12956248 0.14908424 0.03188437
0.027376397 0.02380688 -0.028365193 -0.046510722 -0.3131463 0.21776421 0.033897333 0.21951847
-0.44805047 0.24996708 -0.3275662 0.023851784 0.09145022 0.3552552 -0.17005476 0.13697122
0.32640392 0.27541223 -0.086849675 -0.078653365 0.217323 0.18137562 0.22975363 0.049027625
0.01633471 -0.038726296 -0.025297409 0.010561403 0.023368318 -0.054226324 0.043460432 0.035306726
0.018669758 -0.028119352 0.03228257 0.02596305 0.0057714926 -0.027005209 0.026598057 -0.04491184
-0.015335074 0.026946805 -0.009431867 0.015308633 -0.0061685327 0.018433644 -0.030336792 0.035807636
0.01746601 0.026025873 0.037565272 -0.044142082 -0.00027804714 -0.005098731 -0.0035633447 0.03493852

context_transformer_0/ffn_layer_2/intermediate_dense/einsum/Einsum;context_transformer_0/ffn_layer_2/intermediate_dense/Relu;context_transformer_0/ffn_layer_2/intermediate_dense/add f4 [32]
00000000: b126 20be 6c25 9bbe 17b7 103e d195 b2be
00000010: b449 8dbe 22f3 c5bd 9955 c4bd e53c 5ebe
00000020: a1a0 203d e848 00be 07c6 2ebd 5068 783d
00000030: 5c63 22be 2043 7abe e6c7 a5be 1840 0bbf
00000040: 7bf9 2dbe 98cc 9fbd 731d 6fbe e20d 25be
00000050: e821 363b 64c3 64be 6a92 1abe 5e8f c2bd
00000060: 65ab 093d 3c13 2cbe bfdf a3be f175 81be
00000070: 3f2d 1bbe 8e2c adbd 004a e8bd ef72 d0bb
-0.1563976 -0.30301988 0.14132343 -0.34879926 -0.27595294 -0.096655145 -0.09586639 -0.21702917
0.039215688 -0.12527812 -0.042669322 0.060646355 -0.15858215 -0.24439669 -0.32379073 -0.54394674
-0.169897 -0.07802695 -0.23351078 -0.16118577 0.0027791206 -0.2234016 -0.15094915 -0.09500001
0.03361072 -0.16804212 -0.32006642 -0.25285295 -0.15153979 -0.08455764 -0.113422394 -0.0063613574

context_transformer_0/ffn_layer_1/norm/mul;context_transformer_0/ffn_layer_1/norm/add;context_transformer_0/ffn_layer_2/intermediate_dense/einsum/Einsum;context_transformer_0/ffn_layer_2/intermediate_dense/Relu;context_transformer_0/ffn_layer_2/intermediate_dense/add f4 [32, 32]
00000000: fb2f 3a3e c241 14be 3237 ce3d 1c55 38be
00000010: fdb0 953d 6038 c93d 62a7 24be 69ea cd3d
00000020: e066 af3e d61d a9bd ec84 1c3d 6710 7bbe
00000030: 12ae c2bc cd75 3f3e 9735 593e b550 c43d
00000040: e7c6 afbd f8d4 5f3e c146 91be 2303 49be
00000050: bf3d a1be 34da 1d3e 9f46 efbd 4ec7 c23c
00000060: c5e4 743b 9985 733e cd8d 1fbd 9b42 dc3d
00000070: 165c f0bd b294 99bc 4634 7abd 5a52 51bd
00000080: 85f0 f53d 6f3f 273e 4576 55bd d45d 183e
00000090: 4e9c 1cbe 922d b0bd da87 7cbd c314 aa3c
000000a0: 0596 e6bd 5589 d63d c16d c43d 0df7 a2bd
000000b0: 1e25 52be 42fb c9bd ae2d 00be 51c1 6f3b
000000c0: e603 81be dfbf 02be b088 bcbc 0179 55bc
000000d0: b3e9 88bd 7781 54be ecc0 5c3d d750 aabd
000000e0: 0ad6 c4bd 6638 673e ae59 1ebe 439f fbbd
000000f0: 6551 12be cf40 843d c9cc 0b3e 8747 59be
00000100: 919e 893c bda6 593d 2838 e43d c46f 9fbd
00000110: 3afd 6a3c 6dd1 61be 17ca 6dbd 9b4b 1ebe
00000120: 7679 b93e 8714 67be eb5a 6c3d 5247 77bc
00000130: d462 9d3d 34a4 59bd 7783 623e b86b c33b
00000140: 6b0d 033e 68f2 e33d 7619 09be c304 ea3c
00000150: 333d febd 64bb dabe de05 113d e853 9fbd
00000160: 89d3 583e d4f4 1c3e 85d2 68bc ae5d 8abe
00000170: 0c20 c1bc d5ae 0dbd fe19 ae3e f3a5 343e
00000180: 4964 ed3b ef1e 023e 6f9b e93d da39 f53c
00000190: 7bf1 713c 8def 46bd 38ee 81be 78d5 0dbc
000001a0: 72db 7e3e 09e6 92bd 62f6 82be db29 323e
000001b0: ec3b 4c3e 2f14 f5bd 90bb 23be 85c3 0ebc
000001c0: 8e86 2abe 8277 b3bc 43c1 8a3e 5104 2a3d
000001d0: 0991 2f3d 8863 03be cfaa 453e 1a77 1e3e
000001e0: 9bad 2ebe e3a2 553d 6ade d2bc c590 643d
000001f0: 80ef c9bb 1e76 00be 2a6c 023d 1bf8 66bd
00000200: 80e3 773d 897e 74bd 2d2a b7be 7337 913e
00000210: f8ad 4a3d de43 c4bd e259 88bb 0b67 cabd
00000220: b26d 0b3e d2a9 5dbd eaf1 033f 5e38 fc3c
00000230: 7def 303d c52c 28bd 083d 8b3e 3c24 0a3e
00000240: 0b0d 903e 9ac4 563e 644f 0e3e 1fcc 823e
00000250: 07c3 36be 5ab1 f1bd 4fb1 c5bd 551e 8c3d
00000260: ce2e 013e 260f 5dbd 29ce a0bc 61a6 c43c
00000270: 2d6e 7bbe a66e 543e a29d b0bd 1e5c d1ba
00000280: 2c7b 053e ac71 29be c19b 60be 2c3f d8bd
00000290: fed8 39be 8dd1 59be c085 303e 3a2f 92be
000002a0: 7f2a 413d ca06 16be 8309 f13c cf2e 8e3d
000002b0: cf2d 6cbc 9807 913c f4c6 01be 0984 3b3e
000002c0: 4a1b a63e 03d1 d43d 1808 13be 370d b33c
000002d0: ae6c 96be 8bee c0bd ff91 d5bc a545 283e
000002e0: 0a9c ed3d d1f6 653e 468e 1f3d dece 46be
000002f0: 5918 48be 78a5 86be 08e4 843d 1e8e c73d
00000300: 08ff 793d 418b 293d 45e6 a0bd 61fd 863e
00000310: 79c1 433d 7a69 0b3e 789e e1bd 833d 923d
00000320: 8d25 b2bd 864a a0bd 7ba4 a8bd 09fc 253e
00000330: 7596 7d3d 9c5c 203e d1d5 bb3d 3f57 fbbb
00000340: 73a6 493e 4ad5 b33c 3049 973c 9b07 e8bd
00000350: d488 0cbc 899a 09bd 39c5 8cbd ea66 9b3d
00000360: 06f4 d23c db59 023c 9d02 403d fa91 80bd
00000370: 5046 b93d c289 913d d649 0f3c 12ab 1e3c
00000380: 7b58 2c3e 09ef 3f3d d69f 6fbe 432f d6bd
00000390: 3f58 a6be ba0a 1cbd 1cd7 a0bd 0bb1 123d
000003a0: 0b33 62bd 5aec 373e b094 383e 81cd 0fbe
000003b0: d2e9 6a3e d2b1 1ebd 9650 413e 5a0a 4abe
000003c0: f445 dcbc 0441 1bbe fc64 a5be e457 7dbe
000003d0: 8079 54bd 8cd9 03be d76c 1d3e 6cc3 683d
000003e0: 02b4 833e c8a9 9b3d 01d8 c2bd 3e96 ab3d
000003f0: cfe1 c43c f095 ae3d 0109 c53e 431a 60bd
0.18182366 -0.1447821 0.100691214 -0.18001217 0.073091485 0.09825206 -0.16079476 0.10054476
0.34258175 -0.08257644 0.0382127 -0.24517976 -0.023764644 0.18697281 0.21211849 0.09585706
-0.085828595 0.21858585 -0.28374293 -0.19630103 -0.3149242 0.15415269 -0.11683392 0.023776677
0.0037367803 0.23781432 -0.03895359 0.107548915 -0.11736314 -0.018747661 -0.061085008 -0.051103927
0.12008766 0.16332792 -0.052114744 0.14879543 -0.15294 -0.08602442 -0.061652996 0.020761853
-0.11259083 0.10475413 0.095912464 -0.079572774 -0.20521972 -0.09862377 -0.12517425 0.0036583731
-0.25198287 -0.12768506 -0.023014396 -0.013029338 -0.066851996 -0.20752512 0.053894922 -0.083162
-0.09611137 0.22580108 -0.15463898 -0.12286236 -0.14288862 0.06457674 0.13652338 -0.21218692
0.016799243 0.05313753 0.111435235 -0.077849895 0.0143426005 -0.22052546 -0.058054056 -0.15458529
0.3622548 -0.22566424 0.057703894 -0.015092688 0.076848656 -0.053135112 0.22120462 0.005963769
0.12798087 0.1113022 -0.13388619 0.028566724 -0.124140166 -0.42721093 0.035405986 -0.07779676
0.21174444 0.1532777 -0.014210348 -0.27024597 -0.023574851 -0.03459056 0.34004205 0.1764143
0.007244621 0.12707113 0.114066 0.029934812 0.014767046 -0.048568297 -0.2537706 -0.008656852
0.24888399 -0.07172782 -0.255786 0.17398779 0.19944733 -0.1196674 -0.15989518 -0.008713608
-0.16652891 -0.021907572 0.27100572 0.041508023 0.042862926 -0.12830937 0.1930344 0.15475121
-0.17058413 0.052157294 -0.02574082 0.055802125 -0.006162584 -0.12545058 0.031841435 -0.056388956
0.060519695 -0.059690986 -0.35774365 0.28362617 0.049482316 -0.09583257 -0.0041611055 -0.09882935
0.13616064 -0.05411703 0.51541007 0.030788597 0.043197144 -0.04105832 0.27195 0.13490385
0.2813495 0.20973435 0.13897473 0.25546357 -0.17847835 -0.11801405 -0.096529596 0.06841723
0.12615511 -0.053969525 -0.019629555 0.024005117 -0.24553747 0.20745334 -0.08623816 -0.0015972888
0.13035268 -0.16547269 -0.21934415 -0.10558924 -0.18149182 -0.21271344 0.17238522 -0.28551656
0.047159668 -0.14651027 0.02942348 0.06942522 -0.0144152185 0.017703816 -0.12673551 0.18312086
0.32442695 0.10391428 -0.14358556 0.021856887 -0.2937979 -0.094204985 -0.026070593 0.16432817
0.11602028 0.22457434 0.038954042 -0.19414851 -0.19540538 -0.26298118 0.06488806 0.097439036
0.061034232 0.04139257 -0.078564204 0.26365188 0.04779193 0.13614455 -0.11016554 0.07140639
-0.086985685 -0.07826714 -0.08234497 0.16209425 0.061911065 0.15660328 0.091716416 -0.0076703127
0.19692402 0.02195229 0.018467516 -0.11329576 -0.008577544 -0.03359464 -0.06873555 0.07587989
0.025751125 0.0079559935 0.046877492 -0.06277843 0.09046614 0.07106353 0.008745631 0.009684341
0.16830628 0.04685882 -0.23400816 -0.10458233 -0.324892 -0.038096167 -0.07853529 0.035813373
-0.05522446 0.17961255 0.1802547 -0.14043237 0.22940758 -0.0387438 0.18878397 -0.19730511
-0.026888825 -0.1516152 -0.32303607 -0.24740559 -0.051873684 -0.12875956 0.1537355 0.056826994
0.25723273 0.076007426 -0.09513856 0.08378266 0.024033455 0.08524692 0.38483432 -0.054712545

context_transformer_0/ffn_layer_3/intermediate_dense/einsum/Einsum;context_transformer_0/ffn_layer_3/intermediate_dense/Relu;context_transformer_0/ffn_layer_3/intermediate_dense/add f4 [32]
00000000: dd78 0fbf 7058 aabe 06c4 82bd 1696 1dbe
00000010: 8829 74bd bb6b 83be 5bde 40be c528 2cbe
00000020: 1b12 93be ea73 033c 2d3b debe 64ce 16be
00000030: 7e39 05be 237c d83b b4c4 95be 40d2 0abd
00000040: e14b b9bd 0b5d 7fbe cae0 70be 8ca7 1cbe
00000050: 80cb b8be af61 503d 40ef 52be 5485 86bc
00000060: bf9a 80be d17e 9ebe cd89 30be 06e7 a0be
00000070: 04d5 36be ff5e c8be cc72 8ebe 8bcb 38be
-0.560438 -0.33270597 -0.06385045 -0.15389284 -0.05960992 -0.2566813 -0.18834822 -0.16812427
-0.2872475 0.008023242 -0.43404523 -0.1472717 -0.13010213 0.006606595 -0.29251635 -0.033891916
-0.09047676 -0.24937837 -0.2352325 -0.15298289 -0.36092758 0.05087441 -0.20599079 -0.016420998
-0.25118062 -0.30956128 -0.17240067 -0.31426257 -0.17854697 -0.39134976 -0.27821958 -0.18046395
